…
Step 30/31 : LABEL nl.diagnijmegen.rse.algorithm.hardware.gpu.cuda_compute_capability=6.0
 ---> Using cache
 ---> ca0d3772c707
Step 31/31 : LABEL nl.diagnijmegen.rse.algorithm.hardware.gpu.memory=8G
 ---> Using cache
 ---> ad764c0defe6
Successfully built ad764c0defe6
Successfully tagged mitosisdetection:latest
mitosisdetection-output
WARNING: Your kernel does not support swap limit capabilities or the cgroup is not mounted. Memory limited without swap.
Overriding model.yaml anchors with anchors=3

                 from  n    params  module                                  arguments                     
  0                -1  1      3520  models.common.Conv                      [3, 32, 6, 2, 2]              
  1                -1  1     18560  models.common.Conv                      [32, 64, 3, 2]                
  2                -1  1     18816  models.common.C3                        [64, 64, 1]                   
  3                -1  1     73984  models.common.Conv                      [64, 128, 3, 2]               
  4                -1  2    115712  models.common.C3                        [128, 128, 2]                 
  5                -1  1    295424  models.common.Conv                      [128, 256, 3, 2]              
  6                -1  3    625152  models.common.C3                        [256, 256, 3]                 
  7                -1  1   1180672  models.common.Conv                      [256, 512, 3, 2]              
  8                -1  1   1182720  models.common.C3                        [512, 512, 1]                 
  9                -1  1    656896  models.common.SPPF                      [512, 512, 5]                 
 10                -1  1    131584  models.common.Conv                      [512, 256, 1, 1]              
 11                -1  1         0  torch.nn.modules.upsampling.Upsample    [None, 2, 'nearest']          
 12           [-1, 6]  1       256  models.common.ConcatT                   [256, 512, 1]                 
 13                -1  1    361984  models.common.C3                        [512, 256, 1, False]          
 14                -1  1     33024  models.common.Conv                      [256, 128, 1, 1]              
 15                -1  1         0  torch.nn.modules.upsampling.Upsample    [None, 2, 'nearest']          
 16           [-1, 4]  1       128  models.common.ConcatT                   [128, 256, 1]                 
 17                -1  1     90880  models.common.C3                        [256, 128, 1, False]          
 18                -1  1    147712  models.common.Conv                      [128, 128, 3, 2]              
 19          [-1, 14]  1       128  models.common.ConcatT                   [128, 256, 1]                 
 20                -1  1    296448  models.common.C3                        [256, 256, 1, False]          
 21                -1  1    590336  models.common.Conv                      [256, 256, 3, 2]              
 22          [-1, 10]  1       256  models.common.ConcatT                   [256, 512, 1]                 
 23                -1  1   1182720  models.common.C3                        [512, 512, 1, False]          
 24      [17, 20, 23]  1     16182  models.yolo.Detect                      [1, [[0, 1, 2, 3, 4, 5], [0, 1, 2, 3, 4, 5], [0, 1, 2, 3, 4, 5]], [128, 256, 512]]
 25                20  1         0  torch.nn.modules.upsampling.Upsample    [None, 2, 'nearest']          
 26                23  1         0  torch.nn.modules.upsampling.Upsample    [None, 4, 'nearest']          
 27      [17, 25, 26]  1         0  models.common.Concat                    [1]                           
 28                -1  1         0  models.common.GradReverse               [0.1]                         
 29                -1  1     57472  models.common.Conv                      [896, 64, 1, 1]               
 30                -1  1     32368  models.common.Conv                      [64, 56, 3, 2]                
 31                -1  1     24288  models.common.Conv                      [56, 48, 3, 2]                
 32                -1  1         0  models.common.GlobalAveragePooling      [48, 48]                      
 33                32  1       192  models.common.Linear                    [48, 4]                       
 34                32  1       288  models.common.Linear                    [48, 6]                       
 35                32  1     19344  models.common.Linear                    [48, 403]                     
 36                33  1        16  models.common.RadialPredictionLayer     [4]                           
 37                34  1        36  models.common.RadialPredictionLayer     [6]                           
 38                35  1    162409  models.common.RadialPredictionLayer     [403]                         
MYYOLOv5s0.1concatT summary: 296 layers, 7319507 parameters, 7319507 gradients, 16.8 GFLOPs

Adding AutoShape... 
WARNING: In /tmp/SimpleITK-build/ITK/Modules/IO/TIFF/src/itkTIFFImageIO.cxx, line 1261
TIFFImageIO (0x55835adfae30): ICC Profile has unsupported data type (7) for meta-data dictionary.

WARNING: In /tmp/SimpleITK-build/ITK/Modules/IO/TIFF/src/itkTIFFImageIO.cxx, line 1261
…
